miv/data/dahl_lochner_f.pt (torch, 4615 bytes, 10 tensors)

fx.0.weight f8 [5, 1]
0.025208353996276855 0.34133137328976165 0.3776871073414229 0.7515114742655061 -0.24073590340813975
00000000: 0000 0000 38d0 993f f935 588b 5fd8 d53f
00000010: 83be 898b 062c d83f 4340 91ca 610c e83f
00000020: 6f34 0e20 6fd0 cebf

fx.0.bias f8 [5]
-0.725119948387146 -0.028746126837806255 0.6113110224450428 -0.4304823850148095 0.4554116486475494
00000000: 0000 00c0 2e34 e7bf 51c4 9eea 9f6f 9dbf
00000010: b7be 2222 dc8f e33f ca21 49fd 058d dbbf
00000020: 9b27 4ae6 7625 dd3f

fx.2.weight f8 [1, 5]
0.23315131664276123 0.12434284236206132 0.1618596642403585 -0.147545444224677 -0.2638371268772401
00000000: 0000 0000 e7d7 cd3f fbcd 6fb9 eed4 bf3f
00000010: c118 3a46 d1b7 c43f 2d34 cfe4 c4e2 c2bf
00000020: 6322 da1d b5e2 d0bf

fx.2.bias f8 [1]
-0.23623174092559338
00000000: 8fba c678 d73c cebf

gu.0.weight f8 [5, 28]
0.16703701397751342 0.23121136249706892 -0.18015509843826294 -0.11094932492871357 -0.1558494752133775 0.8263079536257931 0.4163305667308899 0.04670461905977794
0.2148477527875214 0.00030653386863120917 -0.23228337473097466 0.18187126224779152 0.08251112859563908 0.40809688148624845 -0.2511450625197045 0.39489885850161666
-1.2989783777126442 0.11205548262088612 0.008855572170222484 -0.5945897622008629 -0.17227542931348738 0.43044669257243956 -0.30181816099491093 0.44703422825771194
0.5367605701551564 0.3899062358921578 0.23424980437633905 0.31739075019729074 -0.19167535284063786 -0.8636752581202614 -0.1464436948299408 0.20516190447907307
0.828047947385656 -0.5236239329824723 -0.47953402378390264 -0.03022344793601932 -0.49712513360161653 -0.12736523591716162 0.007333690693091584 0.2466790038016778
0.19380994014038253 -0.13976119341720686 0.5237884062560184 0.03689237996292661 0.1847696136024891 -1.3364011611909827 0.0736294171355869 -0.031583111924393795
-1.3453958895177847 -0.016429040393575966 1.250304488227161 -0.1155354030361587 0.025024732823210185 0.01643125457524321 0.3396370596291079 0.3176746528121322
0.4526948383628233 -0.14820383545522992 0.05445398390293121 -0.13825338243754434 0.27128269497068613 0.3804156673697969 0.23782220049002087 -0.03775215469158218
-0.3154844940896061 0.023951613384962666 -0.07213280832729962 -0.7362546746324029 -0.08852731103509394 -0.056574962586855904 0.18648173168264373 0.08208007319600943
0.34354863768177213 0.01969826340936887 0.42090714494406695 0.6647892592410483 -0.21849010765289995 0.7116568988167978 -0.8560391832820653 -0.021540138752231243
0.09153133208428028 -0.16065722675352312 0.39029561082308983 0.21626466707768188 0.09599485543356168 -0.5203380631063578 -0.15872631967067719 -0.06866078921175509
1.0744155964093214 0.28688763381118504 -0.04132589006486948 -0.016047354512992294 0.022626932257773895 0.5823062269455355 0.10278853664078588 0.4258221534787245
-0.07927173144704522 1.2354143624017024 -0.2286828222291486 0.7393420045056529 -0.6565549004721521 0.1953338527390712 0.5223308017798752 -0.3314839578759419
0.23269528088066352 0.42240704138252017 -0.13381808547942584 0.4494201905156154 0.006148113499813261 0.14993832929889894 -0.21292467887147842 0.33630851904144493
0.38028325378169536 -0.6375968100142676 0.1836959570646286 0.37916885177011267 1.119119686782847 0.23939391730782392 0.11003943165957972 -0.16646478958313682
-0.2906754853210262 0.23633777021908925 -0.10132910715608047 -0.028481671483368835 -0.07277101645300126 0.2317364437178603 1.0350540876643737 0.13241139537464164
-0.8546701567550437 -0.13387537630751076 0.18875406748564205 0.38739607238794677 0.008066081679316169 0.8009578819516974 -0.2760709817150718 0.13389095009717253
0.08795371534131886 -0.1391999876818018 0.3942302046464885 0.4608391370513767
00000000: 0ea1 2008 7861 c53f c2ba 317c 5598 cd3f
00000010: 0000 0080 520f c7bf a804 15ca 2c67 bcbf
00000020: b2f2 9127 e0f2 c3bf 3eeb a760 1d71 ea3f
00000030: ddcb 1bf6 28a5 da3f 1d26 def6 aae9 a73f
00000040: 2fb6 eb93 2180 cb3f 34ff ddf0 c816 343f
00000050: d6e0 ef2c 76bb cdbf 5ddf b7b9 8e47 c73f
00000060: 74d3 df06 731f b53f 4850 e561 421e da3f
00000070: 84bc 84bd c212 d0bf cc7f 9fdc 0546 d93f
00000080: 84ca 278d 9dc8 f4bf 3db7 3109 abaf bc3f
00000090: 4227 dec6 de22 823f 4c0d e61b e106 e3bf
000000a0: 1024 670b 1f0d c6bf 9547 d148 708c db3f
000000b0: e5f7 b31e fd50 d3bf 63ce a373 359c dc3f
000000c0: a328 d380 242d e13f 2a73 ea48 39f4 d83f
000000d0: e104 72c8 e5fb cd3f 039e 094b 2150 d43f
000000e0: a82c f365 d188 c8bf 4cb5 7f4b 3aa3 ebbf
000000f0: 0000 00c0 aabe c2bf 76b4 0fcb be42 ca3f
00000100: 8152 b168 5e7f ea3f f000 72fa 86c1 e0bf
00000110: 4a27 5e79 afb0 debf 0d8b d441 e5f2 9ebf
00000120: 31ab b5ef e5d0 dfbf 23ad 7409 814d c0bf
00000130: bb11 f99a ee09 7e3f 8a12 f876 2d93 cf3f
00000140: e775 459d c3ce c83f e508 7ddd b1e3 c1bf
00000150: 0d98 5ce7 dfc2 e03f e122 d3da 8ee3 a23f
00000160: c4ce dbdb 87a6 c73f 586d 1a2f e661 f5bf
00000170: 80f2 9ea2 60d9 b23f 9271 a461 a92b a0bf
00000180: 6c6d 1ad7 bd86 f5bf e3c0 c73c c6d2 90bf
00000190: 8da4 6f47 3f01 f43f 060b 9269 ba93 bdbf
000001a0: e76d 4464 15a0 993f c5b5 21d4 5ad3 903f
000001b0: b576 e713 9dbc d53f 2929 2611 c854 d43f
000001c0: 7886 75c5 f3f8 dc3f 5e03 36e1 57f8 c2bf
000001d0: 0000 0080 64e1 ab3f 9bb8 106e 49b2 c1bf
000001e0: 78ab b717 b25c d13f 8f50 8ff4 ba58 d83f
000001f0: cb06 af36 f570 ce3f 5bfc 811b 4054 a3bf
00000200: 3ea3 20e0 e530 d4bf 030c b390 c586 983f
00000210: e000 bcb4 4b77 b2bf 6758 a2f6 658f e7bf
00000220: 11d4 b2d1 b9a9 b6bf 007b 2abc 64f7 acbf
00000230: 796f 7025 a2de c73f b2b7 071e 3303 b53f
00000240: 9a6d db6c b3fc d53f e161 8614 c82b 943f
00000250: fdff 8b85 24f0 da3f 0a84 e51f f445 e53f
00000260: 5e32 6fdd 7bf7 cbbf 7b82 4cb0 e4c5 e63f
00000270: 0a50 0949 ac64 ebbf 5af2 f73d 9e0e 96bf
00000280: 1d7e dced 986e b73f 40df 627f 6a90 c4bf
00000290: 1e7b 1071 9afa d83f 2482 3084 8fae cb3f
000002a0: 90e0 ab6c 1e93 b83f 3dfc 7c02 9ca6 e0bf
000002b0: 0000 00e0 2451 c4bf 069a 2ee4 c093 b1bf
000002c0: f53e 8e68 ce30 f13f a122 36f3 5d5c d23f
000002d0: 8908 9dc4 aa28 a5bf 9650 48bb b76e 90bf
000002e0: fe49 39b8 832b 973f 929f 1fab 40a2 e23f
000002f0: 9e9f 467b 5950 ba3f 579e c68f ab40 db3f
00000300: 6ef6 0ff6 264b b4bf 5262 b8d9 41c4 f33f
00000310: 58ca 508d 7a45 cdbf cc25 3d90 b0a8 e73f
00000320: 43ce 316c 7f02 e5bf 6372 a81e b300 c93f
00000330: 15d1 ea15 efb6 e03f b573 8e7d 0837 d5bf
00000340: 2972 a87e f5c8 cd3f 7ea2 158b b708 db3f
00000350: fbac 5f76 f320 c1bf 5b4e 1be7 4cc3 dc3f
00000360: 85e6 9ea6 c32e 793f 20b9 60de 2d31 c33f
00000370: a6d4 21aa 1d41 cbbf 7b8c a92a 1486 d53f
00000380: cc5d 8d92 8f56 d83f 5172 e16c 3167 e4bf
00000390: 0000 0060 5983 c73f a9ed 806e 4d44 d83f
000003a0: 68ac 700b eae7 f13f 3966 d9ba 75a4 ce3f
000003b0: 0692 3f50 8b2b bc3f d8f8 98dd b74e c5bf
000003c0: 9ff9 cc59 6d9a d2bf 4245 f3e8 5040 ce3f
000003d0: 5145 5e51 b4f0 b9bf 31d7 399e 4c2a 9dbf
000003e0: 4b27 c30f 1fa1 b2bf 7d9f 872f 8aa9 cd3f
000003f0: eec0 01e0 948f f03f 5c3b 604a dbf2 c03f
00000400: d429 843a 7559 ebbf 737f 7d0d d422 c1bf
00000410: 583d 6be1 1729 c83f 3b53 60e5 18cb d83f
00000420: 24fe 2728 f384 803f 4c97 8e6c 72a1 e93f
00000430: 71d0 759f 25ab d1bf 9fe8 f2b1 5623 c13f
00000440: 65e1 f37a 2284 b63f 6235 5921 4ed1 c1bf
00000450: e054 0353 113b d93f c48f 966f 637e dd3f

gu.0.bias f8 [5]
-0.6416780392952602 0.26979282892830336 1.2611019265721553 -0.04241782201721435 0.7734920934403521
00000000: 99b4 2a62 a088 e4bf 0c50 3c24 4944 d13f
00000010: cdcc b836 792d f43f 52b8 a9ec c9b7 a5bf
00000020: f54e a17d 72c0 e83f

gu.2.weight f8 [1, 5]
-0.16563425574608617 0.16612915183511653 0.3112860124739454 0.28582984577680026 -0.3021186775148063
00000000: 396c c3d7 8033 c5bf 3ba3 0555 b843 c53f
00000010: 30c8 d12a 1cec d33f d040 f543 094b d23f
00000020: 93f5 db93 e955 d3bf

gu.2.bias f8 [1]
-0.1781212355831109
00000000: b5ba c638 adcc c6bf

y_noise_logscale.weight f8 [1, 29]
-0.04630109020601556 0.008800171458333051 -0.3420708908453709 0.04272587597370148 -0.35014997106506895 -0.013167324492053113 0.01414698776631398 -0.011918455863246023
-0.006858989787419357 0.00788754325080932 0.0036733904449410297 0.007204487204730818 0.01886706341350411 0.004695865562740705 0.004236536947370715 0.026570056976711217
0.0019278386440235752 -0.01153280996396958 0.10504376722857248 0.3499425335708243 0.01567250449156132 0.254375530615298 -0.00454730735944427 0.016924035117149287
0.012352797564373517 0.046799886429660126 0.024217990263608633 0.012382378393074956 -0.006132777746102821
00000000: 6d70 68c8 c6b4 a7bf 9ae0 e604 d305 823f
00000010: 880b 464e 7de4 d5bf 0000 0080 2ae0 a53f
00000020: 4ade 9a6c db68 d6bf 67b2 8d60 78f7 8abf
00000030: 4e89 588e 18f9 8c3f 3f31 3611 b468 88bf
00000040: db07 210d 2c18 7cbf c3ce 7622 5827 803f
00000050: 865d 727a a817 6e3f 383d dcce 7382 7d3f
00000060: 288a 5431 e351 933f fc4c 4bd0 f83b 733f
00000070: 1730 32ba 545a 713f 5f42 1257 2e35 9b3f
00000080: 101c 65fb f095 5f3f 1286 028d 839e 87bf
00000090: 0236 e5f8 25e4 ba3f eea0 4a5e 7565 d63f
000000a0: 7f5f f3f8 730c 903f 714d 394e b047 d03f
000000b0: 547c 4c86 32a0 72bf aec7 60c5 8854 913f
000000c0: dfbb 6c6c 6c4c 893f dc03 589b 27f6 a73f
000000d0: 89d0 a0d0 99cc 983f 6daa f5b1 ee5b 893f
000000e0: bc7e a6fd ae1e 79bf

y_noise_logscale.bias f8 [1]
-0.16731017912825083
00000000: 0b66 d281 6b6a c5bf
